…
----------------------------------------------------------------------------------------------------
decoder.estimator.final_block.block.2.bias
torch.Size([256])
----------------------------------------------------------------------------------------------------
decoder.estimator.final_proj.weight
torch.Size([80, 256, 1])
----------------------------------------------------------------------------------------------------
decoder.estimator.final_proj.bias
torch.Size([80])
----------------------------------------------------------------------------------------------------

 flow backbones

CausalMaskedDiffWithXvec(
  (input_embedding): Embedding(6561, 512)
  (spk_embed_affine_layer): Linear(in_features=192, out_features=80, bias=True)
  (encoder): UpsampleConformerEncoder(
    (embed): LinearNoSubsampling(
      (out): Sequential(
        (0): Linear(in_features=512, out_features=512, bias=True)
        (1): LayerNorm((512,), eps=1e-05, elementwise_affine=True)
      )
      (pos_enc): EspnetRelPositionalEncoding()
    )
    (after_norm): LayerNorm((512,), eps=1e-05, elementwise_affine=True)
    (pre_lookahead_layer): PreLookaheadLayer(
      (conv1): Conv1d(512, 512, kernel_size=(4,), stride=(1,))
      (conv2): Conv1d(512, 512, kernel_size=(3,), stride=(1,))
    )
    (encoders): ModuleList(
      (0-5): 6 x ConformerEncoderLayer(
        (self_attn): RelPositionMultiHeadedAttention(
          (linear_q): Linear(in_features=512, out_features=512, bias=True)
          (linear_k): Linear(in_features=512, out_features=512, bias=True)
          (linear_v): Linear(in_features=512, out_features=512, bias=True)
          (linear_out): Linear(in_features=512, out_features=512, bias=True)
          (dropout): Dropout(p=0.0, inplace=False)
          (linear_pos): Linear(in_features=512, out_features=512, bias=False)
        )
        (feed_forward): PositionwiseFeedForward(
          (w_1): Linear(in_features=512, out_features=2048, bias=True)
          (activation): SiLU()
          (dropout): Dropout(p=0.0, inplace=False)
          (w_2): Linear(in_features=2048, out_features=512, bias=True)
        )
        (norm_ff): LayerNorm((512,), eps=1e-12, elementwise_affine=True)
        (norm_mha): LayerNorm((512,), eps=1e-12, elementwise_affine=True)
        (dropout): Dropout(p=0.0, inplace=False)
      )
    )
    (up_layer): Upsample1D(
      (conv): Conv1d(512, 512, kernel_size=(5,), stride=(1,))
    )
    (up_embed): LinearNoSubsampling(
      (out): Sequential(
        (0): Linear(in_features=512, out_features=512, bias=True)
        (1): LayerNorm((512,), eps=1e-05, elementwise_affine=True)
      )
      (pos_enc): EspnetRelPositionalEncoding()
    )
    (up_encoders): ModuleList(
      (0-3): 4 x ConformerEncoderLayer(
        (self_attn): RelPositionMultiHeadedAttention(
          (linear_q): Linear(in_features=512, out_features=512, bias=True)
          (linear_k): Linear(in_features=512, out_features=512, bias=True)
          (linear_v): Linear(in_features=512, out_features=512, bias=True)
          (linear_out): Linear(in_features=512, out_features=512, bias=True)
          (dropout): Dropout(p=0.0, inplace=False)
          (linear_pos): Linear(in_features=512, out_features=512, bias=False)
        )
        (feed_forward): PositionwiseFeedForward(
          (w_1): Linear(in_features=512, out_features=2048, bias=True)
          (activation): SiLU()
          (dropout): Dropout(p=0.0, inplace=False)
          (w_2): Linear(in_features=2048, out_features=512, bias=True)
        )
        (norm_ff): LayerNorm((512,), eps=1e-12, elementwise_affine=True)
        (norm_mha): LayerNorm((512,), eps=1e-12, elementwise_affine=True)
        (dropout): Dropout(p=0.0, inplace=False)
      )
    )
  )
  (encoder_proj): Linear(in_features=512, out_features=80, bias=True)
  (decoder): CausalConditionalCFM(
    (estimator): CausalConditionalDecoder(
      (time_embeddings): SinusoidalPosEmb()
      (time_mlp): TimestepEmbedding(
        (linear_1): Linear(in_features=320, out_features=1024, bias=True)
        (act): SiLU()
        (linear_2): Linear(in_features=1024, out_features=1024, bias=True)
      )
      (down_blocks): ModuleList(
        (0): ModuleList(
          (0): CausalResnetBlock1D(
            (mlp): Sequential(
              (0): Mish()
              (1): Linear(in_features=1024, out_features=256, bias=True)
            )
            (block1): CausalBlock1D(
              (block): Sequential(
                (0): CausalConv1d(320, 256, kernel_size=(3,), stride=(1,))
                (1): Transpose()
                (2): LayerNorm((256,), eps=1e-05, elementwise_affine=True)
                (3): Transpose()
                (4): Mish()
              )
            )
            (block2): CausalBlock1D(
              (block): Sequential(
                (0): CausalConv1d(256, 256, kernel_size=(3,), stride=(1,))
                (1): Transpose()
                (2): LayerNorm((256,), eps=1e-05, elementwise_affine=True)
                (3): Transpose()
                (4): Mish()
              )
            )
            (res_conv): Conv1d(320, 256, kernel_size=(1,), stride=(1,))
          )
          (1): ModuleList(
            (0-3): 4 x BasicTransformerBlock(
              (norm1): LayerNorm((256,), eps=1e-05, elementwise_affine=True)
              (attn1): Attention(
                (to_q): Linear(in_features=256, out_features=512, bias=False)
                (to_k): Linear(in_features=256, out_features=512, bias=False)
                (to_v): Linear(in_features=256, out_features=512, bias=False)
                (to_out): ModuleList(
                  (0): Linear(in_features=512, out_features=256, bias=True)
                  (1): Dropout(p=0.0, inplace=False)
                )
              )
              (norm3): LayerNorm((256,), eps=1e-05, elementwise_affine=True)
              (ff): FeedForward(
                (net): ModuleList(
                  (0): GELU(
                    (proj): Linear(in_features=256, out_features=1024, bias=True)
                  )
                  (1): Dropout(p=0.0, inplace=False)
                  (2): LoRACompatibleLinear(in_features=1024, out_features=256, bias=True)
                )
              )
            )
          )
          (2): CausalConv1d(256, 256, kernel_size=(3,), stride=(1,))
        )
      )
      (mid_blocks): ModuleList(
        (0-11): 12 x ModuleList(
          (0): CausalResnetBlock1D(
            (mlp): Sequential(
              (0): Mish()
              (1): Linear(in_features=1024, out_features=256, bias=True)
            )
            (block1): CausalBlock1D(
              (block): Sequential(
                (0): CausalConv1d(256, 256, kernel_size=(3,), stride=(1,))
                (1): Transpose()
                (2): LayerNorm((256,), eps=1e-05, elementwise_affine=True)
                (3): Transpose()
                (4): Mish()
              )
            )
            (block2): CausalBlock1D(
              (block): Sequential(
                (0): CausalConv1d(256, 256, kernel_size=(3,), stride=(1,))
                (1): Transpose()
                (2): LayerNorm((256,), eps=1e-05, elementwise_affine=True)
                (3): Transpose()
                (4): Mish()
              )
            )
            (res_conv): Conv1d(256, 256, kernel_size=(1,), stride=(1,))
          )
          (1): ModuleList(
            (0-3): 4 x BasicTransformerBlock(
              (norm1): LayerNorm((256,), eps=1e-05, elementwise_affine=True)
              (attn1): Attention(
                (to_q): Linear(in_features=256, out_features=512, bias=False)
                (to_k): Linear(in_features=256, out_features=512, bias=False)
                (to_v): Linear(in_features=256, out_features=512, bias=False)
                (to_out): ModuleList(
                  (0): Linear(in_features=512, out_features=256, bias=True)
                  (1): Dropout(p=0.0, inplace=False)
                )
              )
              (norm3): LayerNorm((256,), eps=1e-05, elementwise_affine=True)
              (ff): FeedForward(
                (net): ModuleList(
                  (0): GELU(
                    (proj): Linear(in_features=256, out_features=1024, bias=True)
                  )
                  (1): Dropout(p=0.0, inplace=False)
                  (2): LoRACompatibleLinear(in_features=1024, out_features=256, bias=True)
                )
              )
            )
          )
        )
      )
      (up_blocks): ModuleList(
        (0): ModuleList(
          (0): CausalResnetBlock1D(
            (mlp): Sequential(
              (0): Mish()
              (1): Linear(in_features=1024, out_features=256, bias=True)
            )
            (block1): CausalBlock1D(
              (block): Sequential(
                (0): CausalConv1d(512, 256, kernel_size=(3,), stride=(1,))
                (1): Transpose()
                (2): LayerNorm((256,), eps=1e-05, elementwise_affine=True)
                (3): Transpose()
                (4): Mish()
              )
            )
            (block2): CausalBlock1D(
              (block): Sequential(
                (0): CausalConv1d(256, 256, kernel_size=(3,), stride=(1,))
                (1): Transpose()
                (2): LayerNorm((256,), eps=1e-05, elementwise_affine=True)
                (3): Transpose()
                (4): Mish()
              )
            )
            (res_conv): Conv1d(512, 256, kernel_size=(1,), stride=(1,))
          )
          (1): ModuleList(
            (0-3): 4 x BasicTransformerBlock(
              (norm1): LayerNorm((256,), eps=1e-05, elementwise_affine=True)
              (attn1): Attention(
                (to_q): Linear(in_features=256, out_features=512, bias=False)
                (to_k): Linear(in_features=256, out_features=512, bias=False)
                (to_v): Linear(in_features=256, out_features=512, bias=False)
                (to_out): ModuleList(
                  (0): Linear(in_features=512, out_features=256, bias=True)
                  (1): Dropout(p=0.0, inplace=False)
                )
              )
              (norm3): LayerNorm((256,), eps=1e-05, elementwise_affine=True)
              (ff): FeedForward(
                (net): ModuleList(
                  (0): GELU(
                    (proj): Linear(in_features=256, out_features=1024, bias=True)
                  )
                  (1): Dropout(p=0.0, inplace=False)
                  (2): LoRACompatibleLinear(in_features=1024, out_features=256, bias=True)
                )
              )
            )
          )
          (2): CausalConv1d(256, 256, kernel_size=(3,), stride=(1,))
        )
      )
      (final_block): CausalBlock1D(
        (block): Sequential(
          (0): CausalConv1d(256, 256, kernel_size=(3,), stride=(1,))
          (1): Transpose()
          (2): LayerNorm((256,), eps=1e-05, elementwise_affine=True)
          (3): Transpose()
          (4): Mish()
        )
      )
      (final_proj): Conv1d(256, 80, kernel_size=(1,), stride=(1,))
    )
  )
)
